ppo-LunarLander-v2/policy.pth (torch, 43762 bytes, 11 tensors)

mlp_extractor.policy_net.0.weight f4 [64, 8]
0.043234862 0.11967407 0.042881284 -0.64816403 -0.113851525 0.19347478 0.10403096 0.22067857
-0.044331115 0.29660937 0.090137 -0.24804378 0.1297831 0.33263308 -0.014482445 -0.20369057
-0.06603402 -0.027654156 0.012520407 0.50925285 -0.23718816 -0.16481069 -0.27191076 -0.26641342
-0.016876554 0.012078487 0.14541176 -0.0075377817 0.48616838 0.78448945 0.042193018 -0.14831436
-0.15063976 -0.053694136 0.099742845 -0.41142458 -0.12739626 -0.06624887 -0.23617952 -0.10131392
-0.5194796 0.11449011 -0.114671476 0.468667 -0.32826808 -0.074758664 -0.099059336 0.25105724
0.13347182 0.016653042 0.034446098 0.48639387 -0.041282456 -0.32291684 0.053151656 0.14590293
0.0070254374 0.19376339 0.06215374 0.37267113 -0.23542279 -0.02522607 -0.47715333 0.18279383
-0.028665708 0.10437971 -0.39686802 0.30657944 0.50366265 0.5807909 -0.07053357 0.22306216
0.013242019 0.15274741 -0.24674658 0.2545115 0.6244888 0.13265607 -0.022870127 0.05312463
-0.15062487 -0.09927228 0.16886431 -0.328159 -0.079334415 0.14833404 0.23393795 0.2273437
-0.09441716 -0.06338726 0.50803834 0.13976392 -0.20284662 -0.41652125 -0.1827868 -0.16159685
-0.101604626 0.25956056 0.0061759586 0.49027935 -0.42793366 -0.46930397 -0.078791216 0.034764886
-0.049849484 0.05535636 -0.1370076 -0.18266036 0.40397114 0.41572484 0.28272247 0.34230316
0.28053874 0.16242498 -0.38674822 0.44680148 0.293575 0.39370286 -0.04370287 0.21087907
-0.2091298 -0.08904272 0.29805696 0.33862478 -0.29161993 -0.07718753 0.26873255 -0.074139334
0.22499946 0.0576559 0.31509247 -0.3791496 -0.37467077 -0.31966507 -0.02346254 -0.10505446
0.26054156 0.0827567 -0.059509706 0.19302103 -0.43312904 -0.31871173 0.044775408 -0.031504292
0.061434615 -0.21116549 -0.24445467 -0.4275701 -0.26810288 -0.20313269 0.11657877 0.42811453
-0.48830014 -0.0658512 -0.2956552 -0.37931645 0.6242998 0.14839786 0.057052583 -0.46597952
-0.386007 0.07396146 -0.21259233 0.18964177 0.06306312 0.21526797 -0.004557447 -0.08034395
0.1697206 0.13510494 0.10011433 -0.18978913 -0.52826905 -0.20267192 -0.26720092 -0.36534983
-0.18115619 -0.015603273 -0.304733 0.2003198 0.83227193 0.35123578 -0.06679318 0.025061298
0.2767587 -0.29644942 0.3244179 0.3515168 -0.3386072 0.19218582 -0.094637714 0.03542656
-0.116544075 0.023687119 0.6272517 -0.05883399 -0.34722686 -0.40722796 0.17087184 -0.11887653
0.16586332 -0.15555526 0.14951125 0.24129021 0.066118285 0.13494526 -0.05516315 0.09521746
0.17949037 -0.14140214 -0.019771561 0.376789 0.5715162 0.5588826 0.11813234 -0.0072279694
0.019638356 0.026658954 0.102232195 0.04241793 -0.67152184 -0.7829963 0.05450589 -0.16602027
-0.2590074 0.13851246 -0.008521853 0.36313087 0.14451818 -0.04003225 0.01808356 -0.08291861
0.41860437 0.010074923 0.034474168 -0.32585186 -0.52595294 -0.38860998 -0.4099938 0.03329274
-0.16841464 0.052952208 -0.17009819 0.084946886 0.5375129 0.25440744 -0.32950255 -0.16568606
0.027848167 -0.03945359 0.38353625 0.5604143 -0.064004675 -0.34865174 -0.011169467 0.15478529
00000000: 0a17 313d ae17 f53d 49a4 2f3d 14ee 25bf
00000010: fd2a e9bd 411e 463e 2f0e d53d 90f9 613e
00000020: 8b94 35bd 2fdd 973e bf99 b83d 30ff 7dbe
00000030: dce5 043e e24e aa3e c747 6dbc 4394 50be
00000040: d83c 87bd f88a e2bc 6522 4d3c 655e 023f
00000050: 74e1 72be 22c4 28be e337 8bbe 5767 88be
00000060: b340 8abc d9e4 453c d2e6 143e 7fff f6bb
00000070: 10eb f83e 4dd4 483f 96d2 2c3d b8df 17be
00000080: 4f41 1abe 62ee 5bbd fa45 cc3d 3ea6 d2be
00000090: 2a74 02be 7dad 87bd 0bd9 71be ac7d cfbd
000000a0: 9dfc 04bf ca79 ea3d e1d8 eabd 1ff5 ef3e
000000b0: c112 a8be 121b 99bd 9fdf cabd 938a 803e
000000c0: d6ac 083e f66b 883c 5a17 0d3d 9e08 f93e
000000d0: cb17 29bd 5b55 a5be 8db5 593d 9467 153e
000000e0: a435 e63b e969 463e ec94 7e3d c0ce be3e
000000f0: ac12 71be e7a6 cebc 714d f4be 4e2e 3b3e
00000100: 59d4 eabc 08c5 d53d 4932 cbbe fbf7 9c3e
00000110: 09f0 003f b6ae 143f e873 90bd 686a 643e
00000120: 0ef5 583c d169 1c3e 23ab 7cbe 554f 823e
00000130: 7fde 1f3f fed6 073e 225a bbbc 3699 593d
00000140: 683d 1abe 444f cbbd c4ea 2c3e 7504 a8be
00000150: 157a a2bd e1e4 173e 6e8d 6f3e c9cc 683e
00000160: c95d c1bd 2ed1 81bd cd0e 023f 461e 0f3e
00000170: 06b7 4fbe 4642 d5be 772c 3bbe a579 25be
00000180: 1616 d0bd 1fe5 843e b25f ca3b e505 fb3e
00000190: 1f1a dbbe 9c48 f0be 4a5d a1bd a065 0e3d
000001a0: f92e 4cbd 5abd 623d b84b 0cbe 510b 3bbe
000001b0: 4ed5 ce3e e3d9 d43e 00c1 903e 5c42 af3e
000001c0: c6a2 8f3e bc52 263e dd03 c6be 2ac3 e43e
000001d0: 764f 963e 6c93 c93e c801 33bd aff0 573e
000001e0: 1f26 56be 085c b6bd ec9a 983e 3a60 ad3e
000001f0: 354f 95be 7f14 9ebd 5097 893e 5dd6 97bd
00000200: 4266 663e 9828 6c3d cd53 a13e e51f c2be
00000210: d9d4 bfbe 24ab a3be 8334 c0bc cb26 d7bd
00000220: b465 853e 587c a93d 73c0 73bd 4ea7 453e
00000230: 17c3 ddbe 2f2e a3be 6b66 373d a50a 01bd
00000240: dda2 7b3d c43b 58be 5352 7abe 78ea dabe
00000250: c844 89be 0402 50be dac0 ee3d d431 db3e
00000260: 7a02 fabe fedc 86bd 1e60 97be c435 c2be
00000270: 1dd2 1f3f 9cf5 173e f8af 693d de94 eebe
00000280: b6a2 c5be 1b79 973d ceb1 59be 7431 423e
00000290: 3d27 813d 356f 5c3e a356 95bb 5e8b a4bd
000002a0: 3dcb 2d3e f358 0a3e be08 cd3d 1558 42be
000002b0: a43c 07bf 3a89 4fbe 8fce 88be 220f bbbe
000002c0: 0281 39be dfa4 7fbc f705 9cbe a220 4d3e
000002d0: c60f 553f 2dd5 b33e ddca 88bd 5a4d cd3c
000002e0: 51b3 8d3e 38c8 97be 1a1a a63e 03fa b33e
000002f0: ec5d adbe 5ccc 443e 6bd1 c1bd 711b 113d
00000300: a9ae eebd 7d0b c23c 9193 203f e9fb 70bd
00000310: b8c7 b1be 2f80 d0be 07f9 2e3e 8a75 f3bd
00000320: 13d8 293e e149 1fbe 7a19 193e c814 773e
00000330: 0669 873d 172f 0a3e c1f2 61bd 5f01 c33d
00000340: 53cc 373e b9cb 10be f8f7 a1bc 7dea c03e
00000350: e34e 123f ee12 0f3f 5eef f13d 9ad8 ecbb
00000360: 9ee0 a03c e163 da3c 1d5f d13d 6cbe 2d3d
00000370: dbe8 2bbf 7272 48bf 9141 5f3d 3801 2abe
00000380: 9e9c 84be 36d6 0d3e 3e9f 0bbc 4aec b93e
00000390: 93fc 133e dbf8 23bd f923 943c 3bd1 a9bd
000003a0: 5053 d63e 4a11 253c c934 0d3d 0ed6 a6be
000003b0: daa4 06bf e3f7 c6be b5ea d1be f85d 083d
000003c0: e374 2cbe 6ae4 583d 382e 2ebe a2f8 ad3d
000003d0: 729a 093f b141 823e 8fb4 a8be 9ba9 29be
000003e0: d721 e43c 169a 21bd dd5e c43e 5077 0f3f
000003f0: e214 83bd 7b82 b2be 2400 37bc 0980 1e3e

mlp_extractor.policy_net.0.bias f4 [64]
-0.06761352 -0.103898466 0.08574478 -0.01794933 -0.032521468 0.052817207 0.00448847 0.027625458
-0.0018629985 -0.04471714 -0.031250257 0.051270947 -0.014612113 -0.04724824 -0.0007337467 0.042503733
-0.029529018 -0.009237566 0.037411056 -0.00065098144 -0.03028189 -0.099487185 0.044304345 0.107643716
-0.00725707 0.1810123 0.08887989 0.004122929 0.013691852 -0.0010739057 -0.005963175 0.066523656
0.03481606 -0.01752338 0.059510477 -0.02107715 0.03525997 0.00424642 0.029345598 0.12591065
0.027105188 -0.028944151 -0.05052837 0.037395902 0.092183016 -0.013618969 -0.07588724 0.016757153
0.012637645 0.00726228 -0.022555985 -0.03101835 0.029289082 0.13552737 -0.0009899064 -0.122209206
-0.063119434 -0.028920583 -0.063620836 -0.09802127 -0.05272099 -0.054484356 -0.070638426 -0.07026632
00000000: f578 8abd b8c8 d4bd f69a af3d 790a 93bc
00000010: 3b35 05bd db56 583d 0414 933b c94e e23c
00000020: db2f f4ba 5229 37bd 4500 00bd 7c01 523d
00000030: a567 6fbc 5f87 41bd e858 40ba 6518 2e3d
00000040: d7e6 f1bc 2959 17bc 563c 193d a0a6 2aba
00000050: ba11 f8bc f0bf cbbd 7978 353d 4f74 dc3d
00000060: b7cc edbb 4a5b 393e a906 b63d a319 873b
00000070: ca53 603c 4cc2 8cba bd66 c3bb 8e3d 883d
00000080: 499b 0e3d 318d 8fbc 42c1 733d fda9 acbc
00000090: c26c 103d 8e25 8b3b 2e66 f03c b9ee 003e
000000a0: b30b de3c 491c edbc d6f6 4ebd 722c 193d
000000b0: 73ca bc3d 1922 5fbc c56a 9bbd 4c46 893c
000000c0: 200e 4f3c 6cf8 ed3b 54c7 b8bc 321a febc
000000d0: a8ef ef3c b0c7 0a3e bfbf 81ba d248 fabd
000000e0: c344 81bd dcea ecbc a44b 82bd 60bf c8bd
000000f0: f7f1 57bd fd2a 5fbd e1aa 90bd cae7 8fbd

mlp_extractor.policy_net.2.weight f4 [64, 64]
-0.046068717 -0.06925688 -0.5802556 0.043520633 0.02154023 0.34882137 0.25386283 -0.061914712
0.01395918 0.020124462 -0.08053938 -0.119824626 -0.032449167 0.16485865 0.0059023 -0.0743547
-0.14444277 0.2406694 -0.13808958 0.31701842 0.07051592 -0.1608304 0.20857619 -0.23915088
0.09431068 -0.05525081 -0.06130732 0.24866888 -0.31204662 0.24765395 -0.060993772 0.027915653
-0.041692954 -0.18826462 -0.13609032 0.058749463 -0.013741206 0.09564319 0.16549085 -0.060417168
-0.0021275606 -0.2226835 -0.18548813 -0.18877475 -0.028850507 0.13822523 -0.24597035 -0.16184115
-0.3451358 0.043274794 -0.32603976 0.13752417 -0.20455 0.093751065 -0.0152004175 -0.065835096
-0.06593565 0.20279221 -0.13180546 0.08923433 0.22867127 0.015618711 -0.22083628 0.20073523
-0.30866948 -0.10023339 -0.09172667 -0.13244197 0.112671256 0.27858233 0.49166495 -0.045581564
0.2661442 0.27891862 0.15637693 0.07084253 0.19666913 0.01889419 0.035100322 -0.12688196
0.06895379 0.19760445 -0.028178649 0.17570831 -0.10491899 0.25471503 0.0934191 0.21044095
0.19409822 -0.11181009 0.21499111 -0.042187627 0.2391116 0.110712476 0.040365636 -0.02710118
0.2709411 -0.19218376 0.09134306 -0.000474339 -0.009679893 -0.29141748 -0.0017222923 0.3561232
0.047526367 -0.34338436 0.15362228 0.10832515 0.011490654 0.051343504 -0.32821977 0.39346936
0.24574602 0.22030714 0.29739115 0.023114583 0.31390598 -0.1475361 0.35592762 -0.03284514
0.3095977 0.14335015 -0.001559395 -0.03833107 -0.018879682 0.034978867 -0.019884707 0.015647484
-0.28097573 -0.11162938 0.200639 -0.17097977 0.07722355 0.11593869 -0.09388008 -0.03684794
0.52267975 0.05236729 0.014442518 0.27586874 0.28912163 -0.0742112 0.18174015 0.32964543
-0.41665992 0.024119914 -0.33794904 0.023576252 0.24744433 -0.24617441 0.31931853 -0.28996894
-0.10309977 -0.1371412 -0.004983678 0.26202214 0.38829938 -0.34123608 0.36857817 0.010565327
0.36739382 0.0156245 -0.09961183 -0.14509183 -0.35608798 -0.49399933 -0.009805792 0.26735157
-0.027814988 0.07485784 -0.28751725 0.2333716 -0.11425835 0.25827426 -0.35540837 -0.066210486
0.1729677 0.11562879 -0.063128784 0.4828296 -0.20473213 -0.08762257 0.38524222 -0.04730784
-0.01412689 -0.36360702 -0.22279865 0.32987636 0.002013524 0.27537808 -0.11508419 -0.171088
0.14642932 0.14196539 -0.09921669 -0.08154313 0.042639572 -0.02233681 0.17656785 -0.07266044
0.19325648 0.12316872 -0.20001484 0.008445857 -0.1716257 0.20277636 -0.2241362 -0.037816197
0.14005575 0.017387943 -0.31316316 -0.2998317 0.27198273 0.15317278 -0.11407254 -0.08229467
-0.050958484 0.20243792 -0.1246948 -0.29315653 -0.02695331 0.16502233 0.015718305 -0.019022945
-0.06764503 0.2344747 0.056131665 -0.22795407 0.11623653 0.016848832 0.04331331 -0.018476065
0.06335188 -0.15659219 -0.2326783 0.28073534 0.4371679 0.3053391 0.18453865 0.050320305
-0.01939314 0.13517593 0.13335685 -0.059849672 -0.059365522 -0.18569902 0.193117 -0.17219095
-0.08655545 -0.17222035 0.23731552 0.3171955 -0.14177983 -0.19992067 -0.3037134 0.06907002
00000000: 8db2 3cbd 8dd6 8dbd a28b 14bf b142 323d
00000010: 2375 b03c b798 b23e 4ffa 813e 489a 7dbd
00000020: 0bb5 643c 0edc a43c d5f1 a4bd 9d66 f5bd
00000030: 6be9 04bd b5d0 283e 1568 c13b 4747 98bd
00000040: cee8 13be 0a72 763e 5b67 0dbe 3d50 a23e
00000050: a76a 903d b9b0 24be ff94 553e f8e3 74be
00000060: f525 c13d ac4e 62bd 621d 7bbd 0ea3 7e3e
00000070: 93c4 9fbe ff98 7d3e 9bd4 79bd 5eaf e43c
00000080: 3bc6 2abd 71c8 40be 435b 0bbe 47a3 703d
00000090: cc22 61bc 94e0 c33d 6f76 293e fe77 77bd
000000a0: 8b6e 0bbb 2507 64be 9af0 3dbe 2b4e 41be
000000b0: e657 ecbc ea8a 0d3e a7df 7bbe b0b9 25be
000000c0: a4b5 b0be e940 313d afee a6be 23d3 0c3e
000000d0: 8e75 51be 8f00 c03d 2c0b 79bc 8dd4 86bd
000000e0: 4509 87bd c3a8 4f3e 03f8 06be 7dc0 b63d
000000f0: cd28 6a3e 9fe5 7f3c e822 62be 898d 4d3e
00000100: ed09 9ebe 2a47 cdbd 31db bbbd de9e 07be
00000110: 30c0 e63d 58a2 8e3e 82bb fb3e bcb3 3abd
00000120: 0d44 883e 6cce 8e3e 4621 203e e315 913d
00000130: a263 493e fdc7 9a3c 5bc5 0f3d 58ed 01be
00000140: a537 8d3d d258 4a3e e9d6 e6bc e1ec 333e
00000150: c4df d6bd 026a 823e 8352 bf3d d57d 573e
00000160: afc1 463e b0fc e4bd a126 5c3e efcc 2cbd
00000170: acd9 743e 39bd e23d 7056 253d 4b03 debc
00000180: cbb8 8a3e d2cb 44be 1212 bb3d b4b0 f8b9
00000190: 6a98 1ebc ac34 95be 8abe e1ba c855 b63e
000001a0: 02ab 423d 13d0 afbe 294f 1d3e 94d9 dd3d
000001b0: 4c43 3c3c 914d 523d 6c0c a8be d174 c93e
000001c0: d8a4 7b3e 3298 613e a743 983e cb5a bd3c
000001d0: 49b8 a03e b413 17be 253c b63e a088 06bd
000001e0: 9783 9e3e 62ca 123e 9d64 ccba 0a01 1dbd
000001f0: 90a9 9abc 0046 0f3d 41e5 a2bc 272f 803c
00000200: 0ddc 8fbe f29d e4bd 4f74 4d3e 5215 2fbe
00000210: 6127 9e3d 4471 ed3d 3344 c0bd deed 16bd
00000220: 57ce 053f 157f 563d 50a0 6c3c ab3e 8d3e
00000230: c007 943e 0bfc 97bd 171a 3a3e 49c7 a83e
00000240: 7354 d5be 2097 c53c a807 adbe fc22 c13c
00000250: 0c62 7d3e 2515 7cbe b87d a33e cf76 94be
00000260: f925 d3bd be6e 0cbe 1f4e a3bb c427 863e
00000270: 2dcf c63e 7fb6 aebe 47b6 bc3e 311a 2d3c
00000280: 0b1b bc3e e7fd 7f3c 4a01 ccbd f492 14be
00000290: 2a51 b6be 7bed fcbe 79a8 20bc 4ee2 883e
000002a0: 42dc e3bc 114f 993d 7635 93be f7f8 6e3e
000002b0: 4800 eabd 863c 843e 16f8 b5be 5d99 87bd
000002c0: 721e 313e c9ce ec3d aa49 81bd 7135 f73e
000002d0: 4da5 51be 7673 b3bd 783e c53e dec5 41bd
000002e0: 7974 67bc b32a babe 5425 64be 8ee5 a83e
000002f0: 54f5 033b 5bfe 8c3e 43b1 ebbd b131 2fbe
00000300: 91f1 153e 605f 113e 1f32 cbbd 1600 a7bd
00000310: d5a6 2e3d b0fb b6bc 34ce 343e ffce 94bd
00000320: 07e5 453e e23f fc3d b1d0 4cbe 7e60 0a3c
00000330: a6be 2fbe 9ba4 4f3e f683 65be 28e5 1abd
00000340: c66a 0f3e 2971 8e3c ec56 a0be 8a83 99be
00000350: 5241 8b3e 53d9 1c3e dd9e e9bd 1c8a a8bd
00000360: d8b9 50bd e34b 4f3e fd5f ffbd 9d18 96be
00000370: 30cd dcbc 9dfb 283e adc3 803c 02d6 9bbc
00000380: 7a89 8abd 231a 703e 51ea 653d cb6c 69be
00000390: 6b0d ee3d 9006 8a3c 4c69 313d 1e5b 97bc
000003a0: a1be 813d b459 20be 3843 6ebe 8bbc 8f3e
000003b0: 79d4 df3e 6855 9c3e b3f7 3c3e aa1c 4e3d
000003c0: 5dde 9ebc 8f6b 0a3e b38e 083e ee24 75bd
000003d0: 4329 73bd e227 3ebe 76c0 453e d352 30be
000003e0: fc43 b1bd 885a 30be d702 733e 7367 a23e
000003f0: bb2e 11be 01b8 4cbe 5380 9bbe 9574 8d3d

mlp_extractor.policy_net.2.bias f4 [64]
-0.054579843 -0.044470053 -0.024115054 -0.02734906 0.042050418 -0.026490448 -0.02717084 -0.05136762
0.0023012308 -3.6118942e-07 -0.03711234 -0.06918261 0.013340592 0.03234904 0.057888 -0.019423012
0.0065001315 -0.025041448 -0.0028761802 0.007779803 0.05336404 0.08331626 0.011479615 0.005836709
-0.007574972 0.019733079 -0.037730474 -0.0042843125 -0.023380175 0.02878506 0.03698076 0.052517008
-0.029119542 0.0047667813 0.030168012 0.023692286 0.05605399 -0.04032123 0.004393529 0.026138237
-0.065228604 0.021211017 -0.0024321824 0.023263255 0.050643947 0.0139318565 -0.039150406 -0.026117893
-0.022202492 0.033023227 -0.05301913 0.01682442 0.024727782 -0.07746197 -0.008846296 0.013955105
0.033618 0.016182873 0.027147451 -0.044607278 0.025613815 -0.017167855 0.06856015 0.028357947
00000000: 1d8f 5fbd 3b26 36bd ef8c c5bc 230b e0bc
00000010: 0f3d 2c3d 7f02 d9bc 6295 debc da66 52bd
00000020: 3fd0 163b 7fe9 c1b4 1c03 18bd 9daf 8dbd
00000030: 8092 5a3c 6d80 043d f81b 6d3d 021d 9fbc
00000040: 0eff d43b b923 cdbc 4c7e 3cbb b8ed fe3b
00000050: 4094 5a3d b7a1 aa3d ff14 3c3c dd41 bf3b
00000060: 7937 f8bb 44a7 a13c 458b 1abd 6b63 8cbb
00000070: c887 bfbc a5ce eb3c 2379 173d 131c 573d
00000080: 1b8c eebc a932 9c3b e822 f73c 5316 c23c
00000090: de98 653d e027 25bd 98f7 8f3b db1f d63c
000000a0: 9396 85bd bac2 ad3c 4065 1fbb 9592 be3c
000000b0: 0770 4f3d 7142 643c 2d5c 20bd 31f5 d5bc
000000c0: 00e2 b5bc 5d43 073d 962a 59bd 5ed3 893c
000000d0: eb91 ca3c 62a4 9ebd 0ef0 10bc f4a3 643c
000000e0: 07b3 093d f291 843c 5564 de3c 1fb6 36bd
000000f0: 10d4 d13c 9aa3 8cbc 4469 8c3d ed4e e83c

mlp_extractor.value_net.0.weight f4 [64, 8]
-0.37141615 0.54589045 0.44188926 -0.047848634 0.22860964 -0.4541223 0.28902882 -0.65289235
-0.26696938 -0.59666324 0.38923177 0.07840954 -0.46062946 0.0538501 0.021286756 0.16911401
0.30397046 0.15262781 0.28485444 -0.30851275 0.54611486 0.1128377 -0.43508115 -0.5246182
-0.5530786 0.35116974 0.88298887 0.6535732 -0.5320155 0.32875544 -0.030924443 -0.120538086
0.36385894 0.38438624 0.11869755 -0.6827577 -0.28493282 0.17466936 0.18891361 0.13346274
-0.076192215 -0.31620985 -0.48686314 -1.6147122 -0.18500975 0.030174788 -0.09510131 0.491213
-0.49425173 -0.6857298 -0.4625029 0.30177918 0.44123155 -0.15323699 -0.13530119 -0.07696158
-0.054705024 -0.4856246 -0.041673467 -0.13900095 -0.4255171 -0.10426389 0.41637692 0.08507607
0.016103545 0.026480334 0.83034647 0.088389285 0.5031567 0.08816518 -0.15945455 0.012654762
-0.46569473 0.5337479 0.019927047 -0.01161728 0.45710754 -0.27549276 -0.33927563 -0.53523433
2.051363 -0.5120559 1.2934083 0.33676785 -0.7438336 -0.11837888 0.089677274 0.058343016
1.8198609 -0.22817336 0.9644942 0.49573988 -0.7807745 -0.18552288 0.11601461 0.31185064
-0.03526743 -0.5654363 0.35108367 0.22831331 -0.29639167 0.1400932 -0.018519357 0.29904637
0.07000791 0.375712 0.050011896 -0.40908164 0.3944849 0.32367516 -1.121587 0.14602974
0.6179355 -0.7605139 -0.89348036 -0.4805274 -0.35464245 0.22555889 0.1243007 0.07075226
-0.24677925 0.14014961 0.682258 -0.01971037 -0.60504025 -0.06536944 0.0073561687 0.10735307
-0.8589543 -0.18025437 -0.43441686 0.8226514 0.67583793 -0.20216979 0.0582752 0.41417307
0.7216897 -0.13766699 -0.6153526 -0.5381153 1.4253806 -0.15213507 -0.25460932 0.19606493
-0.13556276 -0.49120912 0.077747665 -0.122283325 -0.040176738 -0.12911342 0.24999511 0.11229871
0.50130576 0.23752794 -0.6414358 -0.82201076 0.0030742828 0.017891858 0.11724599 0.27143568
0.40621373 0.081495784 -1.8710911 -0.5212593 -0.6055569 0.17253058 -0.17071037 -0.12105503
-0.24698023 -0.115462646 -0.012293771 1.0216992 0.45257795 -0.36631113 0.15956956 -0.46786276
-0.554058 0.52733904 0.10890916 -0.19000678 0.43935978 -0.40655717 -0.87347573 0.03665225
0.6296552 0.21709786 -1.6876391 -0.09845836 0.39154002 -0.35294652 0.41967145 -0.025111586
-1.0281607 -0.3069827 -1.8345642 -1.6142805 0.69546163 -0.02458121 -0.15744829 0.19666857
0.047777124 0.86836004 1.5420804 -0.5084467 -0.07122324 0.15522298 -0.14698717 0.034062427
-0.35311845 0.5179075 -0.23940516 -0.34432492 0.42241934 0.13223669 0.025153527 -1.2712349
0.9587664 -0.17166671 0.8070262 -1.299666 -1.1247449 0.0007598263 -0.043651585 -0.1376059
0.08982661 -0.20390481 1.2223061 -0.60310066 -0.17343372 -0.025238724 0.048296038 0.27263924
0.38341048 0.25837675 -0.0033192835 -0.7935673 -0.5791893 0.002138071 -0.10860451 -0.17252928
0.108273536 0.0028461083 0.5371195 0.17778075 0.44232288 -0.0336247 -0.042831685 0.020525465
-2.1313596 -0.38776016 -0.6646997 0.7376774 0.9065014 0.054194327 -0.44701016 -0.03028098
00000000: 422a bebe 7abf 0b3f 4f3f e23e eefc 43bd
00000010: a518 6a3e b882 e8be 96fb 933e f423 27bf
00000020: 36b0 88be ecbe 18bf 6349 c73e 2e95 a03d
00000030: a0d7 ebbe ec91 5c3d 9061 ae3c 392c 2d3e
00000040: 04a2 9b3e 774a 1c3e 71d8 913e 62f5 9dbe
00000050: 2fce 0b3f 7417 e73d f5c2 debe 614d 06bf
00000060: 8f96 0dbf 85cc b33e 8f0b 623f 9350 273f
00000070: 2b32 08bf a252 a83e 4255 fdbc acdc f6bd
00000080: b84b ba3e 46ce c43e b317 f33d 35c9 2ebf
00000090: b7e2 91be 86dc 323e 9272 413e 75aa 083e
000000a0: aa0a 9cbd 42e6 a1be 2046 f9be e4ae cebf
000000b0: 3273 3dbe 1e31 f73c 7ac4 c2bd 4580 fb3e
000000c0: 900e fdbe fd8b 2fbf 2ecd ecbe cd82 9a3e
000000d0: 1ae9 e13e 28ea 1cbe 658c 0abe 089e 9dbd
000000e0: 6012 60bd caa3 f8be ccb1 2abd 4456 0ebe
000000f0: 61dd d9be 4e88 d5bd 5b2f d53e 5d3c ae3d
00000100: 95eb 833c 49ed d83c 9691 543f 7105 b53d
00000110: e1ce 003f f28f b43d 0e48 23be eb55 4f3c
00000120: 8a6f eebe b4a3 083f 0c3e a33c 6756 3ebc
00000130: 000a ea3e 630d 8dbe 89b5 adbe 1e05 09bf
00000140: 8849 0340 1816 03bf 678e a53f d66c ac3e
00000150: e16b 3ebf a070 f2bd b8a8 b73d 16f9 6e3d
00000160: 34f1 e83f 47a6 69be 18e9 763f 9ed1 fd3e
00000170: d6e0 47bf b6f9 3dbe 1199 ed3d e3aa 9f3e
00000180: 9574 10bd 6fc0 10bf 3dc1 b33e f7ca 693e
00000190: a6c0 97be 9874 0f3e e8b5 97bc 9b1c 993e
000001a0: 4f60 8f3d 535d c03e 46d9 4c3d 2673 d1be
000001b0: edf9 c93e c0b8 a53e 2a90 8fbf d288 153e
000001c0: 0531 1e3f 0ab1 42bf 21bb 64bf b007 f6be
000001d0: b293 b5be e9f8 663e 5e91 fe3d 90e6 903d
000001e0: b3b3 7cbe 6183 0f3e 76a8 2e3f a477 a1bc
000001f0: ebe3 1abf 6ae0 85bd 040c f13b eddb db3d
00000200: 6ee4 5bbf 9a94 38be e36b debe 4899 523f
00000210: b703 2d3f 9905 4fbe fab1 6e3d 7e0e d43e
00000220: a8c0 383f 93f8 0cbe bf87 1dbf edc1 09bf
00000230: df72 b63f 4cc9 1bbe 275c 82be 3fc5 483e
00000240: f7d0 0abe c37f fbbe 2b3a 9f3d ae6f fabd
00000250: 5d90 24bd 4f36 04be b8fe 7f3e defc e53d
00000260: 9355 003f 863a 733e 2335 24bf 4c6f 52bf
00000270: e879 493b f291 923c aa1e f03d 9ef9 8a3e
00000280: 3ffb cf3e 43e7 a63d ea7f efbf 4071 05bf
00000290: c705 1bbf dbab 303e b3ce 2ebe b3eb f7bd
000002a0: 63e8 7cbe ae77 ecbd d06b 49bc 0ac7 823f
000002b0: 4cb8 e73e 228d bbbe 3466 233e b58b efbe
000002c0: bfd6 0dbf b1ff 063f c40b df3d 2391 42be
000002d0: c4f3 e03e 4328 d0be 1b9c 5fbf ab20 163d
000002e0: 1531 213f e74e 5e3e 8f04 d8bf 89a4 c9bd
000002f0: ef77 c83e 68b5 b4be 2ddf d63e d0b6 cdbc
00000300: c59a 83bf d62c 9dbe 00d3 eabf bea0 cebf
00000310: c609 323f 895e c9bc 203a 21be 7c63 493e
00000320: f2b1 433d d84c 5e3f e462 c53f 9029 02bf
00000330: 7ddd 91bd c6f2 1e3e ce83 16be 0b85 0b3d
00000340: f1cb b4be 9695 043f a026 75be 5b4b b0be
00000350: 5947 d83e 0e69 073e c50e ce3c d3b7 a2bf
00000360: b771 753f 66c9 2fbe 4599 4e3f 755b a6bf
00000370: a4f7 8fbf 142f 473a 01cc 32bd 90e8 0cbe
00000380: 04f7 b73d 6ccc 50be 8774 9c3f ce64 1abf
00000390: 9c98 31be 71c1 cebc 11d2 453d 5f97 8b3e
000003a0: 614e c43e f549 843e 5688 59bb 3a27 4bbf
000003b0: c045 14bf e11e 0c3b 0b6c debd 84ab 30be
000003c0: 84be dd3d c685 3a3b aa80 093f 280c 363e
000003d0: 2578 e23e 0eba 09bd 4770 2fbd 0525 a83c
000003e0: 3268 08c0 8088 c6be c229 2abf 6dd8 3c3f
000003f0: 7a10 683f dffa 5d3d 84de e4be d10f f8bc

mlp_extractor.value_net.0.bias f4 [64]
-0.17770386 0.3234419 -0.46563053 -0.3952776 -0.3404852 -0.17722474 0.20702556 0.3211134
0.4069964 0.018979164 0.704998 0.6930056 0.19866753 -0.32948643 -0.04365029 0.2798419
-0.14195116 0.5874272 0.31507534 -0.07889798 0.46054816 0.23440275 -0.05219184 0.16715872
0.12020732 0.18645646 -0.022102179 0.019292112 -0.09350759 0.010157974 0.40397277 -0.29413906
-0.702912 0.14133635 0.22676575 -0.4424587 -0.3120951 0.27647364 0.18704677 0.006023928
0.5377255 -0.037167914 -0.6227741 -0.66553706 -0.25722873 0.629981 0.23531385 0.58531886
-0.34464228 0.15544842 -0.5384328 -0.45719257 0.26023316 -0.54083705 -0.27743143 0.46521035
-0.24164279 0.078918874 -0.37827027 -0.4506072 0.5518311 0.41407838 -0.4470679 0.40050453
00000000: 00f8 35be 2d9a a53e 2067 eebe d361 cabe
00000010: 1354 aebe 677a 35be 82fe 533e fa68 a43e
00000020: d561 d03e 317a 9b3c c07a 343f d168 313f
00000030: 806f 4b3e 72b2 a8be a6ca 32bd 7047 8f3e
00000040: a55b 11be a161 163f 8e51 a13e 4495 a1bd
00000050: f8cc eb3e 4607 703e 1cc7 55bd a82b 2b3e
00000060: 412f f63d 71ee 3e3e a10f b5bc 7e0a 9e3c
00000070: e880 bfbd a26d 263c 85d5 ce3e 6599 96be
00000080: 0af2 33bf 7aba 103e 4835 683e f289 e2be
00000090: eeca 9fbe f48d 8d3e 3089 3f3e 5f64 c53b
000000a0: 61a8 093f 623d 18bd 206e 1fbf a360 2abf
000000b0: 7cb3 83be 6f46 213f 1df6 703e 75d7 153f
000000c0: f474 b0be df2d 1f3e bbd6 09bf 2515 eabe
000000d0: 483d 853e 4c74 0abf 7e0b 8ebe 0d30 ee3e
000000e0: 3571 77be 38a0 a13d a4ac c1be fdb5 e6be
000000f0: ce44 0d3f 1502 d43e 15e6 e4be ee0e cd3e

mlp_extractor.value_net.2.weight f4 [64, 64]
-0.28150228 0.6994407 -0.65852296 -0.24212766 -0.7797497 -0.22596902 0.76350343 0.53850466
0.28831205 -0.35961717 0.078012735 0.12627704 0.5840513 -0.8850221 0.2970644 0.06372211
0.19419222 0.6102832 0.4062831 -0.10013646 0.4882333 0.26655343 -0.49730143 0.19548416
0.015265424 -0.04303158 -0.27748653 -0.46943513 -0.40486208 -0.46661773 0.30968904 -0.124660626
-0.54444915 0.67318994 0.19316094 -0.39909482 -1.0521011 0.55213004 0.29007635 0.1909307
0.28302968 0.07095921 -0.7003876 -0.4027994 -0.45720452 0.0645858 0.5529926 -0.20935534
-0.9683685 -0.37406647 -0.5562609 -0.43778342 0.38994735 -0.5444337 -0.6249555 0.2143824
-0.3996218 0.5182552 -0.35900828 -0.39395317 0.51399064 0.049283948 0.15568666 0.24632058
0.627802 -0.17286271 -0.11194996 0.056400523 -0.36144093 0.05397012 0.43978786 -0.009461457
0.004198446 0.7204872 -0.7712426 -0.8142034 -0.47810817 0.026139129 -0.39749536 0.513482
-0.113909855 -0.2558184 -0.0001043054 -0.20270991 -0.32802656 0.6794204 0.9232806 -0.33429405
0.40599966 -0.05076565 0.7866522 -0.046448927 -0.10324249 0.06794283 0.20970945 0.13267733
-0.7725165 0.42646196 -0.11079081 0.16122232 0.55562025 0.44200236 -0.19409248 0.9798144
-0.94170725 -0.024532704 0.08721245 0.18262336 0.42238152 -0.0019271498 -0.5474594 1.7340866
0.34719238 -0.21974681 -0.5978851 -0.11209485 -0.03313325 -0.18283767 -0.22221829 0.013101028
-0.7215164 0.022081152 -0.30862316 0.18508333 -0.058193777 0.20341764 0.15603775 0.010115062
0.036188453 -0.27755168 0.17769068 0.37616855 -0.6756585 -0.4301084 0.7934618 -0.1174965
-0.0892608 0.26577526 1.5090511 1.164567 -0.112967476 0.45733956 -0.3262389 -0.28966403
-0.5241492 0.01918125 -0.3376265 -0.46538985 -0.15791933 0.825288 0.2669647 -0.46715733
0.08525734 -0.48341838 -0.026474817 0.3051318 -0.8188468 0.019306848 -0.067364044 -0.6503912
-0.82915974 0.15196885 0.06433704 0.088115275 0.19328067 0.24308464 0.39029828 0.46919835
0.7895177 0.037469994 0.7256611 -0.1739417 0.21898377 1.4964248 0.012188384 0.80679524
-0.17827289 0.050755568 -0.5504769 0.05958888 0.18240125 0.19184653 -0.9874607 -0.0058544003
-0.3847886 0.81447846 0.44765264 0.48058042 0.142538 -0.12546764 -0.11829919 -0.5024391
-0.76456356 0.65295184 -0.7854071 -0.3195724 -0.663932 -0.28571135 0.48744205 0.49822548
0.09297623 -0.24841617 0.2641501 0.31929928 0.35655567 -0.7290859 -0.1580393 0.15141785
0.20989692 0.5050013 0.6843803 -0.29926687 0.7094835 0.17140718 -0.71949774 -0.15802133
-0.15112805 -0.17609681 -0.23533359 -0.14001067 -0.0030001665 -0.3836389 0.0831352 0.028646477
-0.5278219 0.5008243 0.13759711 -0.17301027 -0.4768117 0.36237937 -0.073381454 -0.12158385
0.4920864 -0.22611007 -1.3767478 -0.932293 -0.81129056 0.2387875 0.42220274 0.5038518
-0.7202041 0.073860355 -0.5759005 -0.81519896 0.62337995 -0.7349731 -0.4078586 0.4746043
-0.63930905 0.05025546 -0.33441246 -0.47127572 0.74245334 0.14459544 -0.5596228 0.93715984
00000000: 1121 90be 8c0e 333f f694 28bf 50f0 77be
00000010: ad9d 47bf 6c64 67be f674 433f 71db 093f
00000020: a39d 933e be1f b8be 24c5 9f3d c54e 013e
00000030: 6384 153f cf90 62bf d318 983e bd80 823d
00000040: 53da 463e 853b 1c3f 5704 d03e 5814 cdbd
00000050: b7f9 f93e b179 883e 4b9e febe 002d 483e
00000060: d41b 7a3c e241 30bd b712 8ebe cd59 f0be
00000070: 154a cfbe 85e8 eebe 908f 9e3e 124e ffbd
00000080: 0561 0bbf 2d56 2c3f fbcb 453e 2856 ccbe
00000090: 40ab 86bf 6558 0d3f e384 943e 5683 433e
000000a0: 44e9 903e 1053 913d 9a4c 33bf b93b cebe
000000b0: b616 eabe 8f45 843d ec90 0d3f 3f61 56be
000000c0: ffe6 77bf a485 bfbe 1d67 0ebf 2625 e0be
000000d0: 2ea7 c73e 0260 0bbf 15fd 1fbf 0f87 5b3e
000000e0: 3b9b ccbe 5fac 043f efcf b7be 3bb4 c9be
000000f0: e494 033f f7dd 493d 536c 1f3e 763b 7c3e
00000100: a2b7 203f ec02 31be 0546 e5bd 3c04 673d
00000110: c90e b9be c60f 5d3d e02b e13e 3a04 1bbc
00000120: 1e93 893b d971 383f 2870 45bf a26f 50bf
00000130: 98ca f4be ba21 d63c 8384 cbbe 8e73 033f
00000140: 9249 e9bd a1fa 82be 89be dab8 3093 4fbe
00000150: 19f3 a7be 7fee 2d3f 1e5c 6c3f 9728 abbe
00000160: 30df cf3e a4ef 4fbd 0a62 493f 3b41 3ebd
00000170: cc70 d3bd 9c25 8b3d 13be 563e 91dc 073e
00000180: a4c3 45bf 3959 da3e 4be6 e2bd 7717 253e
00000190: 213d 0e3f 224e e23e 2ec0 46be 1ed5 7a3f
000001a0: ba13 71bf cff8 c8bc 719c b23d 9e01 3b3e
000001b0: 6442 d83e 6b98 fcba 4d26 0cbf 8df6 dd3f
000001c0: 33c3 b13e 4f05 61be ff0e 19bf fc91 e5bd
000001d0: bbb6 07bd cc39 3bbe 318d 63be b2a5 563c
000001e0: 4cb5 38bf 88e3 b43c db03 9ebe 7c86 3d3e
000001f0: 995c 6ebd b74c 503e 5cc8 1f3e a5b9 253c
00000200: 583a 143d 411b 8ebe 8cf4 353e 2a99 c03e
00000210: f5f7 2cbf 2b37 dcbe 5020 4b3f 01a2 f0bd
00000220: 5ece b6bd b213 883e 9628 c13f 8810 953f
00000230: 7e5b e7bd 6928 ea3e c908 a7be d84e 94be
00000240: a42e 06bf ff21 9d3c 61dd acbe 9447 eebe
00000250: 9bb5 21be 1346 533f 99af 883e 3f2f efbe
00000260: 669b ae3d 9d82 f7be b7e1 d8bc 3c3a 9c3e
00000270: f29f 51bf 6529 9e3c 29f6 89bd 0a80 26bf
00000280: d043 54bf b99d 1b3e 23c3 833d c875 b43d
00000290: 5eeb 453e 2eeb 783e 2dd5 c73e c43a f03e
000002a0: d51d 4a3f 237a 193d edc4 393f c61d 32be
000002b0: 483d 603e d98a bf3f cab1 473c 228a 4e3f
000002c0: 2b8d 36be 12e5 4f3d 0eec 0cbf 7813 743d
000002d0: 65c7 3a3e 6b73 443e 39ca 7cbf 45d6 bfbb
000002e0: 0303 c5be a981 503f ba32 e53e a30e f63e
000002f0: 7bf5 113e 977a 00be d946 f2bd d99f 00bf
00000300: 70ba 43bf da27 273f 7110 49bf fe9e a3be
00000310: 73f7 29bf c248 92be 0192 f93e 6917 ff3e
00000320: 526a be3d cf60 7ebe af3e 873e 327b a33e
00000330: 778e b63e 60a5 3abf 0ed5 21be 480d 1b3e
00000340: 38ef 563e c447 013f 8c33 2f3f 8239 99be
00000350: b6a0 353f 5d85 2f3e 0131 38bf 58d0 21be
00000360: 50c1 1abe b952 34be 4afb 70be f55e 0fbe
00000370: 719e 44bb 516c c4be ca42 aa3d 04ac ea3c
00000380: 561f 07bf 0536 003f 42e6 0c3e 9b29 31be
00000390: aa20 f4be ca89 b93e 0449 96bd f400 f9bd
000003a0: c0f2 fb3e 6689 67be 4639 b0bf c1aa 6ebf
000003b0: bdb0 4fbf b684 743e f52a d83e 6efc 003f
000003c0: 4c5f 38bf 1944 973d 376e 13bf e1b0 50bf
000003d0: d495 1f3f 3227 3cbf d8d2 d0be 56ff f23e
000003e0: c2a9 23bf abd8 4d3d 1c38 abbe 0d4b f1be
000003f0: 6c11 3e3f d410 143e 7143 0fbf b5e9 6f3f

mlp_extractor.value_net.2.bias f4 [64]
0.20856681 0.18905686 0.013276786 0.26572856 -0.048464995 -0.15563935 0.15636331 0.1522236
0.13911498 -0.09128552 -0.12216728 -0.1849554 -0.051421802 -0.090822786 0.025358772 -0.32513642
0.3580336 -0.012795586 0.17319208 -0.10659353 0.21445039 -0.07207574 -0.07604858 -0.08932346
-0.08389916 -0.24117462 -0.39857402 -0.04370607 0.50750333 0.48475444 0.31475136 0.027019063
0.08238004 0.12441168 -0.2840441 -0.0023875164 0.16981018 -0.13356422 -0.10706441 0.02413227
-0.22314362 -0.20310305 -0.2376733 0.24659975 -0.4283399 -0.35847563 -0.12884057 0.18028203
-0.24655275 0.24590608 -0.07647913 -0.035918027 0.059841197 -0.088612646 -0.119032785 -0.15779287
0.060317274 0.08516396 0.0044179615 -0.042350333 -0.20937465 0.2090932 0.18027519 0.31956223
00000000: 8a92 553e 1f98 413e e086 593c 930d 883e
00000010: 3b83 46bd ec5f 1fbe b41d 203e 81e0 1b3e
00000020: 2874 0e3e e7f3 babd d732 fabd f364 3dbe
00000030: ab9f 52bd 4c01 babd 33bd cf3c 4878 a6be
00000040: 2e50 b73e 94a4 51bc 4459 313e b54d dabd
00000050: e298 5b3e 729c 93bd 5cbf 9bbd 38ef b6bd
00000060: 53d3 abbd 7bf6 76be e511 ccbe 2305 33bd
00000070: bdeb 013f bc31 f83e 1727 a13e 1557 dd3c
00000080: deb6 a83d 8dcb fe3d 3a6e 91be e177 1cbb
00000090: b8e2 2d3e 0fc5 08be 9644 dbbd 0ab1 c53c
000000a0: c37f 64be 3ffa 4fbe a160 73be a584 7c3e
000000b0: 5e4f dbbe 1e8a b7be c8ee 03be da9b 383e
000000c0: 5378 7cbe cece 7b3e 17a1 9cbd c81e 13bd
000000d0: 0b1c 753d 8c7a b5bd 76c7 f3bd 7494 21be
000000e0: 3f0f 773d 716a ae3d 8cc4 903b 8b77 2dbd
000000f0: 4f66 56be 871c 563e 0f9a 383e a99d a33e

action_net.weight f4 [4, 64]
-0.0019573732 0.058532644 0.05042644 -0.0115064895 -0.07498696 -0.0669845 0.056393474 -0.016789643
0.11140344 -0.08598952 0.00033201333 0.07264053 0.006910217 0.09549829 0.08174724 0.060425255
-0.12292512 -0.07990023 -0.023581149 0.07279823 0.06340387 0.04485449 0.05783624 -0.10471379
0.026791787 0.115801945 -0.08025956 0.03714698 -0.043158036 -0.08482599 -0.027520368 0.061168324
-0.064301714 0.015399051 0.0232469 0.048116487 -0.049555812 0.016026678 -0.0074739284 0.03129392
-0.055545084 -0.020948133 0.0999301 -0.015944185 -0.0912719 0.07343318 -0.06204217 -0.064770445
-0.09300909 0.031023506 0.02099529 -0.052343074 0.12267367 -0.014030525 -0.041181874 0.053650316
-0.0015205379 -0.05477253 -0.046784803 -0.002345121 0.11097028 -0.08757424 0.08577272 -0.07736903
-0.059912737 0.006589874 -0.030561341 0.010805792 -0.008510224 -0.028596189 0.07866275 0.0065446584
0.07503825 -0.0888082 -0.03845677 0.094997674 -0.032925576 0.09979132 0.25422636 0.08899708
-0.018809527 0.3420614 -0.06490415 0.062278718 0.15840217 0.10995767 -0.04228316 -0.10452309
0.0076388926 0.052765124 -0.028348723 -0.018021753 -0.3345364 -0.09955557 -0.015368648 0.014474343
-0.14587162 -0.021810208 -0.032668978 -0.009284269 0.016482746 -0.015757263 0.0060723945 0.025100328
-0.05154651 -0.031374846 0.03769295 0.013366794 -0.12990168 0.083624154 0.16338174 -0.03514734
-0.010440771 0.036858242 0.00621056 -0.0019456685 0.021146799 -0.02146514 -0.0056257113 0.01926013
0.040379696 -0.22448517 0.004260639 -0.0114309555 -0.00865058 -0.012915836 0.025939383 -0.021426206
0.012471509 -0.1320132 -0.18919964 0.0024386654 0.13588051 0.102550454 -0.12064006 0.012895358
-0.18651783 0.12728648 0.0043458915 -0.17311215 -0.0011376074 -0.13046066 -0.082263134 -0.11513587
0.28569782 0.04295521 0.10445374 -0.11953668 -0.13134992 -0.103356175 -0.085509926 0.21839204
-0.09563865 -0.16524433 0.117353685 -0.06367958 0.0548078 0.14994283 0.031029709 -0.020197423
-0.023450358 -0.0040960456 0.002816034 -0.06758233 0.07396919 -0.004234087 -0.0063851615 -0.03844325
0.025674049 0.10772439 -0.13135281 0.084256954 0.22008671 -0.14760023 0.1478332 0.12631847
0.22588873 -0.049920805 -0.025218371 0.060150262 -0.15638378 0.03179819 0.11515841 -0.13913773
0.010821777 0.16345444 0.047504522 -0.005130865 -0.2896519 0.076560445 -0.06892264 0.13061355
0.06614635 0.08222691 0.20958212 0.0058095735 -0.08770124 -0.022153698 0.013081627 -0.015487001
0.049866077 0.014715204 0.032019686 0.058350813 0.016262105 -0.038192306 -0.24051227 -0.016599532
-0.19324476 -0.28654626 -0.013637963 0.00542452 -0.08406261 -0.024821376 0.050753247 -0.059185985
0.06547558 0.048976503 -0.034125302 0.04968333 0.30537173 0.0036271883 -0.0046892134 -0.054035187
0.24581501 0.030070933 0.013010648 0.034108806 -0.06036998 0.013480706 0.010949543 -0.013755774
0.07474507 -0.06695456 0.038641505 -0.07955833 -0.04109896 0.035910994 -0.258816 -0.025022214
-0.15072384 -0.00044839797 0.011998813 -0.024897452 0.063216545 0.013507837 -0.08592623 0.077047616
-0.05395797 0.07053979 -0.01992715 0.014547676 0.22727747 0.0026378154 -0.007606125 -0.04612116
00000000: 4647 00bb edbf 6f3d f48b 4e3d b785 3cbc
00000010: c392 99bd 2b2f 89bd d8fc 663d 6f8a 89bc
00000020: 7d27 e43d 461b b0bd 1312 ae39 8fc4 943d
00000030: 1a6f e23b 9c94 c33d 196b a73d 7980 773d
00000040: 2ac0 fbbd bba2 a3bd 412d c1bc 3d17 953d
00000050: e3d9 813d 57b9 373d b1e5 6c3d 2f74 d6bd
00000060: 737a db3c 9229 ed3d 205f a4bd 6f27 183d
00000070: 7bc6 30bd 40b9 adbd 6572 e1bc a38b 7a3d
00000080: 9eb0 83bd 4d4c 7c3c 4870 be3c cb15 453d
00000090: 09fb 4abd 614a 833c dbe7 f4bb 0e2e 003d
000000a0: 3e83 63bd 6b9b abbc 27a8 cc3d 619d 82bc
000000b0: c3ec babd 2364 963d ee1f 7ebd 5ea6 84bd
000000c0: 8d7b bebd 0225 fe3c 50fe ab3c b165 56bd
000000d0: 553c fb3d 4ae0 65bc 53ae 28bd 6fc0 5b3d
000000e0: c94c c7ba 2959 60bd 6ca1 3fbd 9ab0 19bb
000000f0: 6344 e33d 205a b3bd 9ca9 af3d a773 9ebd
00000100: 0f67 75bd dfef d73b c75b fabc c70a 313c
00000110: 776e 0bbc 8e42 eabc f019 a13d 9374 d63b
00000120: a7ad 993d 13e1 b5bd d984 1dbd 248e c23d
00000130: f8dc 06bd 645f cc3d f529 823e 1a44 b63d
00000140: 7016 9abc ac22 af3e 78ec 84bd f817 7f3d
00000150: 2e34 223e 7d31 e13d 1b31 2dbd 3410 d6bd
00000160: ad4f fa3b 3e20 583d 953b e8bc 5ba2 93bc
00000170: 5b48 abbe cae3 cbbd c8cc 7bbc cb25 6d3c
00000180: 5f5f 15be 52ab b2bc e8cf 05bd 0c1d 18bc
00000190: d306 873c 6015 81bc f0fa c63b 349f cd3c
000001a0: 6f22 53bd e982 00bd ec63 1a3d 6600 5b3c
000001b0: f204 05be 2443 ab3d 8b4d 273e a8f6 0fbd
000001c0: c40f 2bbc abf8 163d f481 cb3b cd05 ffba
000001d0: 0d3c ad3c a9d7 afbc e357 b8bb 6cc7 9d3c
000001e0: 2e65 253d 71df 65be d59c 8b3b e748 3bbc
000001f0: 2abb 0dbc f19c 53bc d47e d43c 0386 afbc
00000200: 4d55 4c3c 782e 07be 8dbd 41be 04d2 1f3b
00000210: 4324 0b3e f905 d23d 2312 f7bd 0d47 533c
00000220: 88fe 3ebe 6357 023e fb67 8e3b 5044 31be
00000230: c51b 95ba 7b97 05be 9379 a8bd 5bcc ebbd
00000240: fc46 923e cdf1 2f3d d8eb d53d a6cf f4bd
00000250: 9880 06be 67ac d3bd d41f afbd 2aa2 5f3e
00000260: 32de c3bd cf35 29be 2157 f03d 716a 82bd
00000270: 257e 603d 9d8a 193e 0432 fe3c 1175 a5bc
00000280: f71a c0bc 1f38 86bb 368d 383b 9b68 8abd
00000290: 297d 973d 19be 8abb 9e3a d1bb ab76 1dbd
000002a0: 6252 d23c 9b9e dc3d 5a81 06be e98e ac3d
000002b0: 695e 613e 8424 17be 9661 173e a159 013e
000002c0: 604f 673e c279 4cbd c296 cebc 1f60 763d
000002d0: 1223 20be d23e 023d 2cd8 eb3d 1f7a 0ebe
000002e0: d34d 313c 9a60 273e 1a94 423d d120 a8bb
000002f0: 414d 94be b9cb 9c3d 5027 8dbd 8fbf 053e
00000300: bd77 873d 9566 a83d b29c 563e 3c5e be3b
00000310: b59c b3bd ac7b b5bc 5254 563c 31bd 7dbc
00000320: 5f40 4c3d 0a18 713c 1327 033d 4301 6f3d
00000330: 1b38 853c 896f 1cbd d948 76be befb 87bc
00000340: f4e1 45be 31b6 92be c371 5fbc 2cc0 b13b
00000350: 0529 acbd 3356 cbbc a3e2 4f3d 016d 72bd
00000360: 1018 863d 969b 483d f9c6 0bbd bf80 4b3d
00000370: af59 9c3e 1fb6 6d3b f9a7 99bb 0054 5dbd
00000380: eeb6 7b3e 5157 f63c 9d2a 553c adb5 0b3d
00000390: 8346 77bd 2ede 5c3c b665 333c e65f 61bc
000003a0: f113 993d 791f 89bd 8e46 1e3d 7aef a2bd
000003b0: 6257 28bd 6817 133d 8883 84be 63fb ccbc
000003c0: 5a57 1abe f516 ebb9 ab96 443c bef5 cbbc
000003d0: ad77 813d fa4f 5d3c 17fa afbd 24cb 9d3d
000003e0: 0803 5dbd 2a77 903d 433e a3bc 6059 6e3c
000003f0: 6dbb 683e 33df 2c3b cd3c f9bb 8be9 3cbd

action_net.bias f4 [4]
-0.08074897 0.058127586 0.040469117 -0.028222183
00000000: b75f a5bd 3117 6e3d f2c2 253d 3532 e7bc

value_net.weight f4 [1, 64]
-3.3304234 5.1670184 1.7105484 -3.6744995 3.565574 0.914024 -3.6353014 -3.7874756
1.6271 -1.4594395 4.353855 0.719185 1.7024512 -1.6838707 -3.5063124 0.77197117
-0.5785079 1.7308403 -0.4939876 0.8029837 1.9920831 1.5138934 -1.2408292 -1.5177189
-1.4437046 1.3161757 0.87701625 3.6385498 -1.2342389 -0.81098074 -1.1036503 -3.5466619
1.5446202 1.9337503 -1.6135911 -1.4598286 1.1978505 -1.3718742 3.9538095 1.2758036
0.9923833 -1.6427418 0.79809487 1.2788787 0.73647434 -1.3473487 3.7124019 2.2715437
0.81895965 -0.6951897 1.2550066 4.0331097 1.2854438 -1.4232062 -1.5530095 1.9497803
1.4187878 -1.6104496 1.5839286 1.2850116 0.42926356 -0.60520005 1.461911 -0.85791093
00000000: a825 55c0 3758 a540 40f3 da3f 002b 6bc0
00000010: 5d32 6440 7afd 693f c7a8 68c0 0066 72c0
00000020: d044 d03f eace babf c852 8b40 821c 383f
00000030: ece9 d93f 1389 d7bf 6c67 60c0 e79f 453f
00000040: 1819 14bf 2d8c dd3f f1eb fcbe 5790 4d3f
00000050: 94fc fe3f 42c7 c13f 7ed3 9ebf 9d44 c2bf
00000060: 50cb b8bf 7278 a83f 2384 603f 00de 6840
00000070: 8afb 9dbf 6f9c 4fbf 6a44 8dbf 82fc 62c0
00000080: 1db6 c53f 2185 f73f 278a cebf aadb babf
00000090: 2a53 993f 9399 afbf 370b 7d40 884d a33f
000000a0: d50c 7e3f 5d45 d2bf f24f 4c3f 4cb2 a33f
000000b0: 9589 3c3f ec75 acbf fe97 6d40 f960 1140
000000c0: 57a7 513f f4f7 31bf 0ea4 a03f 3c0f 8140
000000d0: 6c89 a43f 9f2b b6bf 04c9 c6bf 6792 f93f
000000e0: d79a b53f 3623 cebf 2cbe ca3f 437b a43f
000000f0: 6fc8 db3e 64ee 1abf e61f bb3f 0da0 5bbf
